Arbeit/PLOTS/GAMMA_influence_real_data_distribution/feature=D:P_mech._X_GAMMA=0.0_GAMMA_reduction1.0_num_pool=2_[True, False, False, False, False, True]_15_07_2022__00_40_41/best_model/model_fc.pt (torch, 2207 bytes, 4 tensors)

fc2.weight f4 [3, 50]
000000 95 71 f2 3c 9a f1 e8 bc 1c f2 c5 3c 11 fe 73 3e
       0.029595176 -0.028435517 0.024163298 0.23827387
000010 3f 74 9d 3e 89 c5 5a be aa bf 91 bd d2 0a b7 3e
       0.3075275 -0.21364416 -0.07116635 0.35750443
000020 95 18 9d 3d 5f 56 0c bd 15 ff 40 3d 5e c8 dd 3d
       0.07670704 -0.034262057 0.047118265 0.10829233
000030 1d 9d 66 3e 8f 44 ba bc c8 50 8f 3d e3 90 12 be
       0.22520871 -0.02273777 0.0699783 -0.14313082
000040 53 61 f8 bc 2f 22 9b bd 87 04 d4 3d b8 70 b9 bd
       -0.030319845 -0.075748794 0.10352426 -0.090547025
000050 6e 79 96 3e 79 e3 e0 3d 91 08 14 be 36 2e 96 3e
       0.29389518 0.10980887 -0.14456393 0.2933213
000060 f3 ea e0 bb e6 c9 6b bd 65 ee 92 3d 5e 87 00 3e
       -0.0068639456 -0.057565592 0.071743764 0.12551638
000070 8e 13 44 be 5b 71 08 be ab e3 23 3d 7e ef 05 bf
       -0.19148085 -0.13324492 0.040012043 -0.5231856
000080 34 43 8a 3d a7 67 9b bf ee 53 c4 bd b6 12 47 b9
       0.06751099 -1.2141007 -0.09586321 -0.00018985089
000090 f4 76 a5 3e 6d 71 76 3e 7d 88 87 bd 7a d6 9d bb
       0.32317317 0.24066706 -0.0661783 -0.0048168274
0000a0 47 e3 57 3e cc 7c 8f 3c 31 a0 9a be aa 9a 0c be
       0.21082793 0.017515562 -0.3020034 -0.13730875
0000b0 11 3d f5 3d da 69 e0 3d c7 f0 93 3d e2 08 de 3c
       0.11974538 0.109576896 0.07223659 0.027103845
0000c0 0d a7 07 bd ab d3 82 3e e3 b3 0b 3e 18 f0 84 be
       -0.033118296 0.25552115 0.1364284 -0.25964427
0000d0 da bb db 3e 71 d7 12 3e 28 8b e6 3e d8 67 5e be
       0.42916757 0.14339997 0.45028043 -0.21719301
0000e0 18 e2 23 be ef e0 df 3e af 13 39 3e 1c da b6 3d
       -0.16004217 0.43726298 0.18073915 0.0892832
0000f0 ff e1 4f 3e 10 cb 4b 3e 48 e7 a0 3e 8c 39 c7 bc
       0.20301054 0.19901681 0.31426454 -0.024319433
000100 60 13 00 3e b8 6c 26 be 4c 22 f7 3d 5f 06 04 be
       0.12507391 -0.1625241 0.120670885 -0.12893055
000110 00 79 cb 3d b5 39 10 be d5 ca 4d 3f ce b3 eb bd
       0.09935188 -0.14084513 0.8038762 -0.115089044
000120 26 13 39 be 0a 20 2a 3f 1e 02 a9 3e 4e f5 99 3e
       -0.18073711 0.6645514 0.33009428 0.30069965
000130 25 f9 fb 3d 55 32 71 3e 9d 86 15 be 4b 6e 32 be
       0.1230338 0.23554356 -0.14602132 -0.17424886
000140 ee d4 0d 3e 57 33 63 bf 47 64 54 3e fd f9 01 c0
       0.13850757 -0.88750213 0.20741378 -2.030883
000150 ad 9c 77 be df dd 0d 3e 56 3b 93 3e 5c cf 4f 3e
       -0.24180861 0.13854168 0.28756207 0.20293945
000160 2e 9c 4d bf ae fd 4a be 58 71 2a 3e f0 83 8a 3c
       -0.80316436 -0.19823334 0.166448 0.016908616
000170 b3 b7 a2 be ba 80 6a 3c e6 38 81 3e aa 3b 26 3e
       -0.31780776 0.014312917 0.25238723 0.16233698
000180 d5 8c 96 bd 4d 51 02 3e 0e 46 80 bc 81 f6 39 3f
       -0.0735108 0.12726326 -0.015658405 0.7264176
000190 23 1d 0b 3d c5 da 95 bd 4d 70 b7 3f fb 17 cf be
       0.033963334 -0.073171176 1.4331146 -0.40447983
0001a0 e8 7b 0b 3f 70 d0 61 bd 5b 62 7c 3c 35 39 60 be
       0.5448594 -0.055130422 0.015404309 -0.21896823
0001b0 97 a0 94 3d 2a 94 5a 3e 8c 6c a5 3c b5 c6 28 3d
       0.072571926 0.21345583 0.02019336 0.041205127
0001c0 de 61 b3 bf a3 12 ca ba cf 27 8a 3d 5f 6f b2 3c
       -1.4014242 -0.0015416931 0.06745874 0.021781622
0001d0 66 19 74 bc 44 11 e9 3c 3d 4f 0f 3d ca 9a 00 bd
       -0.014898634 0.028450616 0.034987677 -0.03139762
0001e0 57 d2 9b be 31 79 04 3c f4 5c 3a bd 9d 37 14 bd
       -0.30433914 0.008085535 -0.045498803 -0.03618585
0001f0 ff eb ab 3f 23 49 96 3e 5f 29 19 3d 5b 7c b5 3b
       1.3431395 0.29352674 0.03739297 0.005538506
000200 29 c3 b2 3d 94 9d 98 bc 3a b6 23 3c 1d 6c 98 bf
       0.0872863 -0.018629827 0.009992177 -1.1907994
000210 c0 84 c4 3c f5 6c ec bf 5c 92 b5 bd c3 50 4f bc
       0.023989081 -1.8470751 -0.088658065 -0.012653532
000220 14 63 9a bd c1 df 9f bd ec 60 9b 3e d5 59 fe bd
       -0.07538429 -0.078063495 0.30347383 -0.12419478
000230 7f 44 de 3c 9f 88 14 3e ec 95 3e be 5a cf a1 bc
       0.02713227 0.14505242 -0.18611878 -0.019752193
000240 78 64 00 3e e2 fe 87 3d 07 6c cb be 0c 46 43 3d
       0.12538326 0.06640412 -0.39730856 0.047674224
000250 1d 01 2a be 30 82 8c be
       -0.16601987 -0.27443075

fc2.bias f4 [3]
000000 51 53 26 3f 27 66 69 be 49 58 05 40
       0.6497088 -0.22792874 2.0835135

fc3.weight f4 [2, 3]
000000 d0 4f 09 3f 82 14 93 bd b9 93 d6 3e 1d 71 e5 3e
       0.5363741 -0.07181646 0.41909578 0.4481286
000010 96 64 8b bc 16 9a 58 3d
       -0.017015737 0.052881323

fc3.bias f4 [2]
000000 1d ca 0c 40 09 cc aa bf
       2.199836 -1.3343517
