Arbeit/PLOTS/GAMMA_influence_real_data_distribution/feature=D:P_mech._X_GAMMA=0.0_GAMMA_reduction1.0_num_pool=2_[True, False, False, False, False, True]_15_07_2022__00_40_41/best_model/model_cnn.pt (torch, 762095 bytes, 16 tensors)

conv1.weight f4 [64, 1, 100]
0.07113789 0.0956206 0.0706239 0.06817153 0.050108667 -0.028359294 0.006450813 0.02680797
0.07676716 0.05390607 -0.0062261033 0.003525969 0.025332157 0.13531117 0.1167238 -0.035904218
-0.004160578 0.087250106 0.015577472 0.018850056 -0.03141609 0.039813694 0.08453319 0.13876909
0.022897188 0.010447932 0.06851925 0.057963308 0.062158376 -0.042744722 0.12809272 0.04883234
0.041408762 0.017690083 -0.04211836 0.016934076 -0.04176873 0.09113573 -0.0024464114 -0.040724803
-0.00063591707 0.08912251 -0.0056489343 -0.02727207 0.010663544 0.14400478 0.10525357 0.07394491
0.024271257 0.00919598 0.07049851 0.12189243 -0.027157653 0.12780759 -0.04625206 -0.040395916
-0.045397237 0.082354784 0.054097723 0.074914455 -0.023379305 -0.0104172 0.09214688 0.121290065
-0.03393916 0.05550855 0.04334127 0.025635218 0.08453898 -0.026280737 0.09622879 0.008166053
0.11460585 0.022423267 0.11731616 -0.019823825 -0.043679938 0.051076774 -0.08132168 -0.046511963
0.02399337 0.040085953 -0.028164204 -0.14246142 -0.11113291 0.013088859 -0.017433887 0.0051628174
-0.08669091 -0.14185953 -0.06512131 -0.009104177 0.020759026 -0.11546728 -0.09811907 0.034372225
0.03300009 0.04794822 0.022301478 -0.022271449 0.54059607 0.357212 0.4523599 0.30342808
0.51422906 0.4879687 0.45285773 0.39546984 0.27291945 0.51641315 0.36149248 0.40343565
0.31506673 0.25758958 0.3617253 0.3057354 0.42145428 0.3535888 0.35706222 0.37316754
0.24725537 0.37447923 0.28294444 0.18005921 0.3716178 0.17651886 0.35614216 0.36055014
0.2517642 0.22981873 0.2812271 0.32642993 0.32815623 0.33739656 0.25770226 0.16058809
0.32687032 0.2409481 0.2937806 0.3603843 0.1969163 0.39465827 0.16814734 0.20011166
0.31986135 0.3656073 0.19191864 0.29085976 0.2912231 0.28516334 0.2898549 0.14220744
0.3450953 0.15439531 0.23912649 0.18967448 0.3643439 0.34287077 0.20799772 0.43176967
0.22929847 0.39409748 0.37452585 0.29140544 0.41174632 0.41928756 0.43314517 0.24373788
0.32848653 0.27641606 0.43162403 0.39998013 0.29359066 0.34857616 0.45250624 0.48668885
0.3594584 0.30029106 0.31792578 0.47015455 0.40618622 0.4652191 0.47548142 0.3460074
0.48010877 0.33304906 0.38485515 0.29674557 0.44615173 0.42678645 0.48803878 0.5325392
0.32937658 0.43981642 0.36620224 0.5372892 0.4779074 0.5691237 0.54869545 0.56412166
-0.075888455 -0.06623248 -0.08012587 -0.049302746 -0.049230218 0.06986753 -0.048525393 0.08577973
0.084384315 0.062348176 0.058664847 0.071016155 0.01639012 -0.066441976 0.074723005 0.072866164
0.06805529 -0.0698123 -0.0126039265 0.06484269 -0.0031731725 -0.007069743 -0.05343734 0.05007088
0.044103038 -0.02182628 0.073805764 -0.05883032 0.05201434 -0.004198182 -0.040407192 0.015474451
-0.08727472 0.081647374 -0.021139383 -0.051461983 0.009811389 0.05754398 0.074363425 0.06613256
-0.018411124 0.02269714 0.09179076 0.05372126 0.09963756 0.017313004 -0.09606475 0.029663837
-0.025393164 0.017883575 0.03901979 0.056430794 -0.047409154 -0.0742242 0.0915808 0.025297953
00000000: beb0 913d bcd4 c33d 43a3 903d 849d 8b3d
00000010: bf3e 4d3d c051 e8bc 5761 d33b 639c db3c
00000020: 1a38 9d3d 9ccc 5c3d 5704 ccbb f213 673b
00000030: 6285 cf3c 038f 0a3e e30c ef3d 4d10 13bd
00000040: 7555 88bb 2fb0 b23d a738 7f3c 6f6b 9a3c
00000050: 28ae 00bd af13 233d bd1f ad3d 7c19 0e3e
00000060: e292 bb3c ce2d 2b3c d253 8c3d ef6a 6d3d
00000070: c899 7e3d 1715 2fbd bd2a 033e 6b04 483d
00000080: 3c9c 293d cbea 903c 4d84 2cbd 55b9 8a3c
00000090: b015 2bbd 5fa5 ba3d f953 20bb 0dcf 26bd
000000a0: acb3 26ba dd85 b63d b21a b9bb ad69 dfbc
000000b0: 25b6 2e3c fd75 133e 2f8f d73d 6e70 973d
000000c0: 84d4 c63c bcaa 163c 8661 903d bda2 f93d
000000d0: ba79 debc fedf 023e cd72 3dbd 3076 25bd
000000e0: 74f2 39bd a0a9 a83d 9395 5d3d c06c 993d
000000f0: f585 bfbc e7ac 2abc 81b7 bc3d ed66 f83d
00000100: ca03 0bbd ef5c 633d 9e86 313d f300 d23c
00000110: c622 ad3d b34a d7bc 9a13 c53d e9ca 053c
00000120: 79b6 ea3d 00b1 b73c 7443 f03d 9365 a2bc
00000130: bce9 32bd e135 513d fb8b a6bd 5483 3ebd
00000140: be8d c43c 2b31 243d 9eb8 e6bc 68e1 11be
00000150: a799 e3bd a772 563c 83d1 8ebc da2c a93b
00000160: 018b b1bd a043 11be 525e 85bd b029 15bc
00000170: d50e aa3c 1c7a ecbd a7f2 c8bd e4c9 0c3d
00000180: 1a2b 073d 5a65 443d 97b1 b63c 9d72 b6bc
00000190: 8164 0a3f 7ee4 b63e b89b e73e ed5a 9b3e
000001a0: 84a4 033f 09d7 f93e f8dc e73e 067b ca3e
000001b0: 19bc 8b3e a733 043f 8b15 b93e 1e8f ce3e
000001c0: 6d50 a13e c8e2 833e 0f34 b93e 5a89 9c3e
000001d0: dbc8 d73e 9709 b53e dcd0 b63e d10f bf3e
000001e0: 8330 7d3e bebb bf3e 18de 903e 7161 383e
000001f0: b044 be3e 5cc1 343e 4458 b63e 079a b83e
00000200: 3de7 803e 9a55 6b3e 00fd 8f3e d321 a73e
00000210: 1804 a83e 3ebf ac3e 8df1 833e 3471 243e
00000220: 8c5b a73e 19bb 763e 696a 963e 4a84 b83e
00000230: 6da4 493e a610 ca3e d12e 2c3e 12ea 4c3e
00000240: dec4 a33e e130 bb3e 5286 443e 92eb 943e
00000250: 321b 953e ee00 923e dd67 943e d49e 113e
00000260: 55b0 b03e ce19 1e3e 93dd 743e 073a 423e
00000270: 498b ba3e c28c af3e 5bfd 543e ea10 dd3e
00000280: 38cd 6a3e 25c7 c93e dac1 bf3e 1833 953e
00000290: 6ad0 d23e dcac d63e 34c5 dd3e 6c96 793e
000002a0: 632f a83e 6886 8d3e d3fd dc3e 32ca cc3e
000002b0: 8451 963e 9378 b23e e6ae e73e 482f f93e
000002c0: ee0a b83e c0bf 993e 2bc7 a23e 19b8 f03e
000002d0: a4f7 cf3e 3331 ee3e 4d72 f33e e227 b13e
000002e0: d1d0 f53e 6885 aa3e bc0b c53e 09ef 973e
000002f0: 006e e43e c183 da3e 38e0 f93e 7d54 083f
00000300: 0ca4 a83e 9e2f e13e dc7e bb3e c98b 093f
00000310: 47b0 f43e 17b2 113f 4e77 0c3f 476a 103f
00000320: 686b 9bbd e5a4 87bd 0819 a4bd adf1 49bd
00000330: a0a5 49bd b516 8f3d 90c2 46bd 48ad af3d
00000340: afd1 ac3d cd60 7f3d 8d4a 703d eb70 913d
00000350: 9344 863c bb12 88bd 6008 993d db3a 953d
00000360: 9260 8b3d c0f9 8ebd b380 4ebc 3fcc 843d
00000370: 00f5 4fbb 4da9 e7bb 1de1 5abd 2017 4d3d
00000380: 63a5 343d 07cd b2bc 7a27 973d 10f8 70bd
00000390: fd0c 553d e790 89bb 0382 25bd 8d88 7d3c
000003a0: 17bd b2bd bd36 a73d 802c adbc cdc9 52bd
000003b0: f3bf 203c 3db3 6b3d da4b 983d 8270 873d
000003c0: edd2 96bc 5aef b93c cbfc bb3d d30a 5c3d
000003d0: c70e cc3d 00d4 8d3c 98bd c4bd 9301 f33c
000003e0: 5305 d0bc 9380 923c 37d3 1f3d fa23 673d
000003f0: 1a30 42bd db02 98bd b78e bb3d a73d cf3c

conv1.bias f4 [64]
-0.07321578 -0.3684306 -0.06122644 0.4008171 -0.027016545 -0.06409057 -0.13643679 -0.068528354
0.647581 -0.029140878 0.49556768 -0.079875305 -0.34225684 -0.082296744 -0.017022133 -0.08718137
-0.071610026 -0.22647893 0.5629151 -0.05635434 0.47392452 -0.07172554 0.29230362 -0.025193667
-0.057563853 -0.11971805 0.2910864 -0.12856483 -0.32953125 0.34416497 0.51121515 -0.10267542
-0.06580019 -0.09327674 -0.13605346 -0.05355371 -0.02304479 -0.35760102 -0.059492078 -0.056561865
0.33122754 -0.34215254 0.28129378 -0.09895518 -0.35189798 -0.07010358 0.28738713 -0.048297465
0.58580995 -0.07999816 0.70550907 -0.07100558 -0.018653428 -0.025317049 -0.11340351 0.4408295
-0.07918719 0.34382978 -0.34462377 0.32703242 -0.04130118 -0.060152534 -0.094331026 -0.08387279
00000000: 28f2 95bd f0a2 bcbe 93c8 7abd e637 cd3e
00000010: cd51 ddbc eb41 83bd 16b6 0bbe 9858 8cbd
00000020: dec7 253f dab8 eebc 0cbb fd3e aa95 a3bd
00000030: 4a3c afbe 328b a8bd 0072 8bbc 258c b2bd
00000040: 47a8 92bd 18ea 67be 341b 103f cfd3 66bd
00000050: 3ca6 f23e d7e4 92bd d2a8 953e f362 cebc
00000060: 13c8 6bbd bd2e f5bd 4709 953e 80a6 03be
00000070: 52b8 a8be 6436 b03e ffde 023f 7e47 d2bd
00000080: 40c2 86bd e007 bfbd 9951 0bbe 235b 5bbd
00000090: 6dc8 bcbc 7b17 b7be f7ad 73bd 6aad 67bd
000000a0: a896 a93e 9e2e afbe bd05 903e 03a9 cabd
000000b0: f92b b4be 7792 8fbd 6824 933e 90d3 45bd
000000c0: a4f7 153f 13d6 a3bd 3e9c 343f 606b 91bd
000000d0: 13cf 98bc b365 cfbc 1940 e8bd 67b4 e13e
000000e0: e52c a2bd 750a b03e 8772 b0be cb70 a73e
000000f0: 6d2b 29bd 8162 76bd a030 c1bd 7fc5 abbd

conv2.weight f4 [32, 64, 10]
-0.025072196 0.020187153 0.035262965 -0.014619545 0.03005936 -0.008356198 -0.00037310054 -0.033990767
-0.013319635 -0.0077603944 0.87020904 1.1580428 1.0768306 0.990012 0.94874614 0.9298454
0.8996776 0.9520334 0.9567603 0.80758274 -0.03216115 -0.014503706 -0.018796707 -0.037176576
0.03011934 0.029932871 -0.020115532 -0.033809364 -0.0068499553 0.035354733 -0.26322484 -0.12581027
-0.10563374 -0.05217654 -0.04715411 -0.09393194 -0.08719451 -0.07705015 -0.07140397 -0.09578911
-0.029130116 -0.032023802 -0.001989479 -0.036420774 0.03902547 -0.010924353 0.0028277442 -0.03454282
-0.02572501 0.02531642 -0.015513136 -0.03265215 -0.027518412 -0.025080848 0.021341145 0.024115812
0.0043741907 0.02224697 0.02831996 0.012355549 -0.0430369 -0.03190983 -0.010065634 -0.030396415
-0.05957527 -0.013108263 -0.059842102 -0.03695395 -0.06411009 -0.02672836 -0.01945481 -0.013553793
-0.06759208 -0.07568259 -0.07744407 -0.030861903 -0.0033879676 -0.05955794 -0.048717402 -0.047036573
-0.59758234 -0.1923849 -0.20591246 -0.16308431 -0.18967296 -0.188246 -0.1776509 -0.17907333
-0.17627572 -0.21922621 -0.015238723 0.022538379 0.026175484 -0.012726878 -0.020374706 -0.024622096
0.020556811 0.035199527 0.011596878 -0.016241618 -0.43901482 -0.19638462 -0.21684647 -0.18974815
-0.17410843 -0.1669829 -0.14620772 -0.09637721 -0.100951135 -0.19955307 -0.011236784 -0.019443417
0.00634918 -0.033624038 -0.005905704 0.03794046 -0.02826757 -0.012374822 -0.02201171 -0.004688162
0.06863828 0.05596453 0.043603208 0.10551333 0.07690675 0.040270228 0.059856545 0.07592899
0.06530097 0.0754541 -0.046723202 -0.07824628 -0.045458604 -0.020356398 -0.022451386 -0.077903174
-0.06675003 -0.060887255 -0.03613909 -0.057983227 -0.017589483 -0.01449129 0.0065774038 -0.005388389
0.00018026371 -0.016643018 0.024143549 0.004013564 0.039318286 -0.024140881 -0.042511247 0.027598547
0.08439604 0.047603406 0.042374194 0.09355245 0.08972952 0.0971954 0.11257078 0.07084648
0.016109083 0.0025015778 -0.007999991 0.0027753497 -0.029462183 -0.020214237 -0.011941082 0.0120615205
-0.015587748 -0.028315766 -0.026457533 -0.020697579 0.020955574 0.03916807 0.0023664755 0.02990696
0.014682082 0.061340485 0.02868469 0.075862765 -0.2566368 -0.032847367 -0.035116125 -0.057111368
-0.014027763 -0.07449056 -0.028592544 0.0031795062 0.0029849433 -0.10103434 -0.0021723064 0.036651757
0.09405344 0.037249945 0.099998 0.042448472 0.055571802 0.108229555 0.091814384 0.06599558
-0.28784 -0.08042738 -0.049086776 -0.056021377 -0.10883346 -0.07813125 -0.116883926 -0.0962065
-0.17245321 -0.2106084 0.013425229 -0.038869172 -0.030899704 -0.031777404 0.021796387 0.024651533
0.010312979 0.019635 0.008930874 0.018551018 -0.32862598 -0.11734315 -0.11987218 -0.07530862
-0.12526761 -0.14273302 -0.083271995 -0.09522649 -0.12481542 -0.20808293 0.00988643 -0.021409072
0.018971462 0.011079888 -0.0034632734 -0.009153085 -0.00010069417 -0.0030768432 -0.024665853 0.030792473
-0.005970812 -0.023282103 0.035654437 0.031080311 0.020070272 0.012164509 -0.02528396 0.013905106
0.030038306 0.017410634 0.09950064 0.11882758 0.08381266 0.082284294 0.14553796 0.11165098
00000000: 3564 cdbc 875f a53c e66f 103d d186 6fbc
00000010: 0c3f f63c 6fe8 08bc b59c c3b9 e739 0bbd
00000020: 993a 5abc e84a febb 05c6 5e3f bf3a 943f
00000030: 96d5 893f 6d71 7d3f 07e1 723f 590a 6e3f
00000040: 4551 663f 76b8 733f 3eee 743f bebd 4e3f
00000050: 69bb 03bd f4a0 6dbc 8dfb 99bc 7746 18bd
00000060: d6bc f63c c835 f53c 54c9 a4bc b07b 0abd
00000070: 9775 e0bb 20d0 103d 68c5 86be 68d4 00be
00000080: 8156 d8bd 11b7 55bd ab24 41bd 645f c0bd
00000090: 0993 b2bd 78cc 9dbd 3f3c 92bd 152d c4bd
000000a0: 48a2 eebc 642b 03bd eb61 02bb f32d 15bd
000000b0: 2cd9 1f3d 0ffc 32bc ad51 393b c67c 0dbd
000000c0: 42bd d2bc 6164 cf3c cf2a 7ebc 43be 05bd
000000d0: 4b6e e1bc 5a76 cdbc a0d3 ae3c 868e c53c
000000e0: 5f55 8f3b 473f b63c 43ff e73c ee6e 4a3c
000000f0: 7647 30bd e2b3 02bd 54ea 24bc e701 f9bc
00000100: 3305 74bd 0ac4 56bc fe1c 75bd 065d 17bd
00000110: 274c 83bd 6ff5 dabc b25f 9fbc ba10 5ebc
00000120: b76d 8abd 79ff 9abd ff9a 9ebd 1ad2 fcbc
00000130: aa08 5ebb 07f3 73bd e68b 47bd 6ca9 40bd
00000140: 28fb 18bf 8c00 45be b7da 52be 93ff 26be
00000150: a139 42be 8fc3 40be 1eea 35be 005f 37be
00000160: 9f81 34be d67c 60be d6ab 79bc 68a2 b83c
00000170: f86d d63c 6584 50bc dbe8 a6bc 47b4 c9bc
00000180: c266 a83c 612d 103d d500 3e3c 240d 85bc
00000190: 8dc6 e0be 0d19 49be 000d 5ebe 574d 42be
000001a0: 7b49 32be 91fd 2abe 7ab7 15be 6a61 c5bd
000001b0: 78bf cebd a457 4cbe 7d1a 38bc cd47 9fbc
000001c0: c80c d03b 5cb9 09bd a384 c1bb 7567 1b3d
000001d0: 6491 e7bc c4bf 4abc e751 b4bc 279f 99bb
000001e0: 3a92 8c3d 103b 653d 4799 323d 5f17 d83d
000001f0: 4981 9d3d 65f2 243d 232c 753d a980 9b3d
00000200: 84bc 853d ae87 9a3d d460 3fbd 963f a0bd
00000210: cd32 3abd 76c2 a6bc f8eb b7bc b38b 9fbd
00000220: 3db4 88bd ea64 79bd 9506 14bd d27f 6dbd
00000230: d217 90bc e06c 6dbc 4387 d73b 1591 b0bb
00000240: 2c05 3d39 f056 88bc b1c8 c53c 3784 833b
00000250: 360c 213d 19c3 c5bc 4620 2ebd 5916 e23c
00000260: d5d7 ac3d cafb 423d 9090 2d3d 6d98 bf3d
00000270: 1cc4 b73d 620e c73d 828b e63d f617 913d
00000280: 32f7 833c 83f1 233b 6512 03bc a4e2 353b
00000290: ad5a f1bc 5498 a5bc 87a4 43bc af9d 453c
000002a0: c163 7fbc 77f6 e7bc 78bd d8bc f88d a9bc
000002b0: 06ab ab3c b36e 203d df16 1b3b 71ff f43c
000002c0: 1e8d 703c 2940 7b3d 28fc ea3c f05d 9b3d
000002d0: e665 83be f68a 06bd edd5 0fbd 9ced 69bd
000002e0: b4d4 65bc 828e 98bd e93a eabc 435f 503b
000002f0: 0a9f 433b 18eb cebd 415d 0ebb 2720 163d
00000300: 179f c03d 6693 183d c0cb cc3d 73de 2d3d
00000310: 429f 633d 75a7 dd3d 2e09 bc3d b128 873d
00000320: c45f 93be 1cb7 a4bd 370f 49bd ac76 65bd
00000330: 14e4 debd 4703 a0bd d760 efbd ea07 c5bd
00000340: 9397 30be baa9 57be 7ef5 5b3c 4835 1fbd
00000350: 6021 fdbc 0629 02bd 568e b23c 03f2 c93c
00000360: c5f7 283c 94d9 a03c cd52 123c 4ef8 973c
00000370: aa41 a8be 9b51 f0bd 8c7f f5bd 683b 9abd
00000380: 2746 00be 9b28 12be 828a aabd 1b06 c3bd
00000390: 3a9f ffbd b113 55be b1fa 213c 1462 afbc
000003a0: 0a6a 9b3c 6b88 353c 16f8 62bb d2f6 15bc
000003b0: c52b d3b8 dda4 49bb 0b10 cabc 7f40 fc3c
000003c0: cda6 c3bb 1cba bebc 630a 123d 239c fe3c
000003d0: 696a a43c a64d 473c 4f20 cfbc 3ed2 633c
000003e0: e512 f63c bfa0 8e3c fec6 cb3d e05b f33d
000003f0: f9a5 ab3d ab84 a83d e707 153e 45a9 e43d

conv2.bias f4 [32]
-0.2133094 0.100974984 0.013835053 0.0596391 0.18056928 -0.05122058 -0.00020406072 -0.006495516
0.019466383 0.070024416 0.10030288 -0.15512294 0.087107584 0.11718037 0.09281051 0.044107888
-0.08526024 0.015628982 -0.08357422 0.06786614 -0.002619545 0.075695686 0.11311699 -0.034836616
-0.034870196 0.029573293 -0.073042795 -0.043852773 -0.011116646 0.035116956 -0.14608276 0.011343013
00000000: c86d 5abe f9cb ce3d 6bac 623c 2148 743d
00000010: 27e7 383e accc 51bd 22f9 55b9 56d8 d4bb
00000020: f777 9f3c f668 8f3d 996b cd3d 8cd8 1ebe
00000030: 7665 b23d 43fc ef3d 7013 be3d 79aa 343d
00000040: ec9c aebd 5a08 803c f628 abbd 67fd 8a3d
00000050: acac 2bbb 5706 9b3d e1a9 e73d d7b0 0ebd
00000060: 0dd4 0ebd b143 f23c 7697 95bd f79e 33bd
00000070: 9822 36bc ccd6 0f3d b896 15be 0bd8 393c

batch1.weight f4 [32]
1.0384862 1.0371218 0.61443424 1.1804258 1.0473071 1.0739287 1.1690606 0.7968114
0.56329536 1.1174468 0.9851453 1.290209 1.1987168 1.1780733 0.91076696 1.082338
0.5433242 1.0483439 0.9874034 0.99641275 0.4933687 0.77979696 1.1075066 0.4391721
0.8736661 1.2033381 0.55246717 1.2525197 1.1798897 0.94585025 1.1375238 0.8059619
00000000: 1eed 843f 68c0 843f 904b 1d3f 3118 973f
00000010: 290e 863f 7f76 893f c7a3 953f d5fb 4b3f
00000020: 2034 103f 7f08 8f3f 7b32 7c3f 9225 a53f
00000030: 8d6f 993f 1bcb 963f 0628 693f 0d8a 8a3f
00000040: 4b17 0b3f 2230 863f 78c6 7c3f e814 7f3f
00000050: d29a fc3e c6a0 473f c7c2 8d3f 2adb e03e
00000060: 95a8 5f3f fc06 9a3f 7d6e 0d3f 9152 a03f
00000070: a006 973f 3e23 723f 619a 913f 8553 4e3f

batch1.bias f4 [32]
-0.26398462 0.015405878 0.018749923 -0.42762738 -0.011197493 -0.49538973 -0.18399832 -0.3117608
-0.41003782 0.31278387 -0.1510842 -0.4604228 -0.19652691 0.1713459 -0.03635096 -0.38311014
-0.3040738 -0.16729003 -0.31774777 -0.5518357 -0.2576655 -0.20951079 -0.15727764 -0.34472892
-0.48827234 -0.28328216 -0.3495763 -0.47419295 -0.48745143 -0.485816 -0.19040634 0.14206754
00000000: fe28 87be f068 7c3c 7099 993c faf1 dabe
00000010: b175 37bc b9a3 fdbe 0e6a 3cbe 1d9f 9fbe
00000020: 7af0 d1be 3525 a03e d1b5 1abe 8abc ebbe
00000030: 5a3e 49be 4d75 2f3e bfe4 14bd 0327 c4be
00000040: 90af 9bbe 144e 2bbe d6af a2be 1b45 0dbf
00000050: bbec 83be ff89 56be 640d 21be 4f80 b0be
00000060: d5fe f9be 5c0a 91be aafb b2be 6bc9 f2be
00000070: 3c93 f9be e0bc f8be e1f9 42be 277a 113e

batch1.running_mean f4 [32]
-5.663811 -6.17912 0.3856869 1.2522496 -3.1424997 1.7220885 -0.8044452 -0.9931146
-3.4183757 1.2828805 -0.44076738 0.836313 -0.67569363 0.39886963 1.5769212 1.6261309
-0.8730673 0.28520125 0.4224804 2.4049883 0.54209644 -2.146971 -1.244742 -0.39318758
0.8599454 0.9214801 2.0919335 1.1300228 0.60188603 2.56632 -2.514281 -0.26719862
00000000: f13d b5c0 5abb c5c0 c178 c53e b749 a03f
00000010: b71e 49c0 656d dc3f 1ff0 4dbf c23c 7ebf
00000020: abc6 5ac0 6e35 a43f 43ac e1be 9c18 563f
00000030: 42fa 2cbf a438 cc3e 8ed8 c93f 0f25 d03f
00000040: 5781 5fbf e605 923e 5a4f d83e 54eb 1940
00000050: d5c6 0a3f f967 09c0 b553 9fbf e24f c9be
00000060: 6225 5c3f 1fe6 6b3f 3de2 0540 96a4 903f
00000070: 3415 1a3f 963e 2440 fbe9 20c0 42ce 88be

batch1.running_var f4 [32]
2.2378128 0.7633649 1.888333 2.4842522 1.3909261 2.6179023 2.4138105 0.926662
0.6378009 2.0146992 2.3835678 2.8374677 2.9695597 1.8254242 2.025339 2.8307197
0.75598484 2.2725646 0.95396334 2.142784 0.59910035 1.1741042 3.6094174 0.97784454
1.5318705 3.7279313 1.2817479 3.1839743 2.5850577 2.4488404 3.1287892 1.9283482
00000000: 5338 0f40 e26b 433f e5b4 f13f fdfd 1e40
00000010: de09 b23f b68b 2740 df7b 1a40 b939 6d3f
00000020: eb46 233f d5f0 0040 608c 1840 1299 3540
00000030: 440d 3e40 80a7 e93f 279f 0140 832a 3540
00000040: 3988 413f b371 1140 f136 743f 6023 0940
00000050: a45e 193f 0c49 963f b200 6740 0554 7a3f
00000060: 5514 c43f 6d96 6e40 5110 a43f 3cc6 4b40
00000070: 9671 2540 cdb9 1c40 153e 4840 1dd4 f63f

conv3.weight f4 [32, 32, 5]
0.5103636 0.7402905 0.51320565 0.6421683 0.28215742 0.10181395 -0.053493593 -0.1482782
-0.32458997 -0.46729043 -0.07752406 -0.0842652 -0.06866804 -0.11261047 -0.1467654 0.017113592
-0.0016291671 -0.049834166 0.0016867031 -0.13797808 0.25822598 0.32904854 0.35080895 0.2966924
0.21610487 -0.19465399 -0.21319215 -0.20194818 -0.09152953 -0.21594504 0.33544013 0.5203409
0.5560183 0.63575184 0.32423154 0.27487975 0.35513383 0.34676638 0.40393433 0.2549476
0.06613639 -0.0609922 0.050574947 -0.10363241 -0.15977438 0.17558004 0.2758701 0.30016512
0.24466474 0.10534096 0.28821898 0.5264725 0.47893992 0.527094 0.28531408 -0.07206632
-0.07988467 -0.016406463 -0.089251235 -0.14838424 0.28041276 0.5692512 0.5689882 0.46334115
0.26519144 0.17934272 0.16960035 0.23775187 0.23899604 0.12413235 0.18118721 0.45687634
0.5006842 0.45639896 0.19344103 -0.23267956 -0.121172704 -0.12278848 -0.12352117 -0.14991955
-0.17529768 -0.1842843 -0.12464205 -0.14905019 -0.16850582 0.23872668 0.4757565 0.5030476
0.4951453 0.23220295 0.36155897 0.4701475 0.47429967 0.40078065 0.19837017 -0.12551448
-0.15917298 -0.1327648 -0.14484079 -0.25260934 0.07524264 0.23527767 0.15268697 0.19487983
0.016916754 0.21869239 0.428838 0.31857806 0.34665716 0.07621333 0.3665951 0.5302784
0.5350872 0.5426748 0.35206372 0.04827638 0.17648873 0.13172807 0.14339454 0.04636828
-0.14727083 -0.008289024 -0.07893154 -0.11401457 -0.09292103 -0.07118554 -0.08351507 -0.10267037
-0.1545982 -0.13398896 -0.08636683 -0.069696695 -0.08658457 -0.15770736 -0.19554809 -0.05465954
-0.037758254 -0.004196126 -0.056308948 -0.19146542 -0.14134665 -0.015303242 -0.124919295 -0.06920169
-0.24757117 -0.24207032 -0.06117491 -0.16080643 -0.12179723 -0.261282 0.38203174 0.57562983
0.57475656 0.6141016 0.30825293 0.049599648 0.37108085 0.30803996 0.2559789 0.070331775
0.6687865 0.980608 0.9354287 0.9527098 0.36925182 0.035183493 -0.09973438 -0.07341196
-0.28531262 -0.46015683 -0.17393959 -0.10378618 -0.10234017 -0.25790972 -0.23261891 -0.18038793
-0.18706623 -0.115120746 -0.17723511 -0.19093788 0.12539034 0.1809505 0.10995612 0.20781547
-0.06710769 -0.19235022 -0.1471121 -0.122305095 -0.14940953 -0.21187085 0.43814796 0.8707465
0.85636044 0.86232924 0.31762752 0.32928026 0.46754536 0.37532896 0.39263555 0.23978038
-0.036270853 -0.13626625 0.08922838 -0.16794124 -0.41443387 0.009826888 0.15071404 0.26026466
0.20858395 0.08880817 0.23933116 0.6682233 0.764209 0.8096848 0.32007256 -0.17102177
-0.046147835 -0.12629154 -0.20960759 -0.20775652 0.4723319 0.7925725 0.82513326 0.9642346
0.4196097 0.11006095 0.13058722 0.17197551 0.16339931 -0.037139904 0.23042111 0.52448004
0.5575436 0.5360128 0.1564227 -0.19184111 -0.31485596 -0.18209887 -0.28073248 -0.27556017
-0.062648006 -0.10182692 -0.19173181 -0.11838592 -0.11494668 0.2571494 0.70047486 0.5582993
0.74745625 0.15739128 0.35386318 0.56479764 0.52742505 0.51332045 0.18206596 -0.10501086
00000000: 30a7 023f ae83 3d3f 7261 033f 2465 243f
00000010: f076 903e d583 d03d 191c 5bbd 3ed6 17be
00000020: a830 a6be b140 efbe efc4 9ebd 3c93 acbd
00000030: d4a1 8cbd 51a0 e6bd ab49 16be ce31 8c3c
00000040: c789 d5ba e91e 4cbd 5d14 dd3a 204a 0dbe
00000050: 3236 843e 0d79 a83e 3b9d b33e 11e8 973e
00000060: 984a 5d3e 6053 47be 0b4f 5abe 81cb 4ebe
00000070: d673 bbbd b220 5dbe cfbe ab3e 1035 053f
00000080: 3757 0e3f a2c0 223f ad01 a63e 0abd 8c3e
00000090: 1ad4 b53e 5d8b b13e 7bd0 ce3e 7e88 823e
000000a0: 8472 873d f5d2 79bd ad27 4f3d 3b3d d4bd
000000b0: e59b 23be 41cb 333e d93e 8d3e 3eaf 993e
000000c0: 6589 7a3e 00bd d73d 7091 933e e7c6 063f
000000d0: 9d37 f53e a2ef 063f b014 923e 8297 93bd
000000e0: 939a a3bd d966 86bc 5ac9 b6bd 0af2 17be
000000f0: 4392 8f3e 72ba 113f 36a9 113f 0d3b ed3e
00000100: 2cc7 873e 9ea5 373e b7ab 2d3e 3a75 733e
00000110: 61bb 743e 1a39 fe3d 2489 393e b2eb e93e
00000120: d72c 003f 20ad e93e 6815 463e 8d43 6ebe
00000130: 6529 f8bd 8778 fbbd abf8 fcbd 8384 19be
00000140: 3c81 33be 06b5 3cbe 5544 ffbd 9da0 18be
00000150: ca8c 2cbe c474 743e 5b96 f33e bac7 003f
00000160: af83 fd3e 9cc6 6d3e 421e b93e 2cb7 f03e
00000170: 68d7 f23e 1f33 cd3e 8d21 4b3e de86 00be
00000180: 3efe 22be 7ff3 07be 2551 14be 0356 81be
00000190: d018 9a3d a1ec 703e f959 1c3e 948e 473e
000001a0: 0195 8a3c e6f0 5f3e a890 db3e aa1c a33e
000001b0: 0c7d b13e bc15 9c3d 5ab2 bb3e 53c0 073f
000001c0: 7afb 083f bcec 0a3f b241 b43e 74bd 453d
000001d0: 76b9 343e b9e3 063e 05d6 123e aaec 3d3d
000001e0: 2ace 16be b0ce 07bc dca6 a1bd 7980 e9bd
000001f0: 624d bebd b9c9 91bd f309 abbd d844 d2bd
00000200: fe4e 1ebe 6734 09be 18e1 b0bd 24bd 8ebd
00000210: 4053 b1bd 0a7e 21be c23d 48be afe2 5fbd
00000220: 66a8 1abd a87f 89bb 36a4 66bd 830f 44be
00000230: 2dbd 10be 73ba 7abc b0d5 ffbd 9eb9 8dbd
00000240: 4c83 7dbe 48e1 77be 8b92 7abd 71aa 24be
00000250: d370 f9bd c1c6 85be aa99 c33e 7a5c 133f
00000260: 3f23 133f c335 1d3f 54d3 9d3e 0029 4b3d
00000270: 4ffe bd3e 6ab7 9d3e ab0f 833e 1b0a 903d
00000280: 9835 2b3f 2009 7b3f 4178 6f3f cae4 733f
00000290: 930e bd3e 911c 103d 8a41 ccbd 0259 96bd
000002a0: 7f14 92be ad99 ebbe 381d 32be d98d d4bd
000002b0: b997 d1bd be0c 84be a733 6ebe 9db7 38be
000002c0: 4a8e 3fbe 6dc4 ebbd 1f7d 35be 3885 43be
000002d0: 5366 003e 164b 393e ad30 e13d 94cd 543e
000002e0: c26f 89bd 75f7 44be 8ea4 16be 187b fabd
000002f0: d0fe 18be acf4 58be ee54 e03e 3ee9 5e3f
00000300: 703a 5b3f 9cc1 5c3f 13a0 a23e 6c97 a83e
00000310: 1b62 ef3e 1e2b c03e 8707 c93e fd88 753e
00000320: bf90 14bd 6189 0bbe 5ebd b63d caf8 2bbe
00000330: ad30 d4be f500 213c c854 1a3e 6941 853e
00000340: 0897 553e 0fe1 b53d 3a13 753e af10 2b3f
00000350: 33a3 433f 8147 4f3f 8de0 a33e 5520 2fbe
00000360: 8305 3dbd 9252 01be 5fa3 56be 20be 54be
00000370: 7dd5 f13e 08e6 4a3f ef3b 533f 14d8 763f
00000380: 15d7 d63e a367 e13d a8b8 053e 591a 303e
00000390: 2652 273e 0320 18bd 83f3 6b3e 5344 063f
000003a0: 2dbb 0e3f 2338 093f 462d 203e ff71 44be
000003b0: cd34 a1be 2078 3abe 2bbc 8fbe 3916 8dbe
000003c0: 994d 80bd a28a d0bd 5855 44be 5174 f2bd
000003d0: 2a69 ebbd 16a9 833e 5252 333f b4ec 0e3f
000003e0: 4b59 3f3f 2e2b 213e 8e2d b53e 9496 103f
000003f0: 5405 073f f868 033f 806f 3a3e ef0f d7bd

conv3.bias f4 [32]
0.07180697 0.07136665 0.006663567 0.07511091 -0.0064969994 0.06095348 0.03881912 -0.046843316
0.006624342 0.06130945 0.054310396 0.01388188 0.0070165223 0.026810307 -0.03917959 0.0019079127
0.011770742 -0.021641703 -0.012035189 -0.056805138 0.050792035 0.064902775 -0.023346301 0.053775992
0.011450444 0.052580446 0.027439471 0.036500406 -0.0048128916 -0.042907692 -0.011795194 0.049246497
00000000: 880f 933d ae28 923d 0d5a da3b c0d3 993d
00000010: c8e4 d4bb 5baa 793d cc00 1f3d c7de 3fbd
00000020: 0211 d93b 9e1f 7b3d 9474 5e3d d370 633c
00000030: dbea e53b 4aa1 db3c c77a 20bd ed12 fa3a
00000040: 12da 403c f149 b1bc 3e2f 45bc 81ac 68bd
00000050: 4f0b 503d bfeb 843d be40 bfbc 3744 5c3d
00000060: a59a 3b3c 985e 573d bec8 e03c 7381 153d
00000070: 76b5 9dbb fabf 2fbd a140 41bc b2b6 493d

batch2.weight f4 [32]
1.1982687 1.130707 0.77394754 1.2155886 1.2990787 0.4723737 1.3178958 1.1443729
1.2789146 1.2013426 1.1967167 0.9724925 0.90205914 0.97060305 0.65590996 0.3733621
0.6548795 1.0556262 0.9987156 1.0619372 1.1892893 0.5526851 1.1609517 0.6387896
1.1238992 0.9306658 0.60706973 1.1394836 1.0559855 0.65953326 0.54182017 1.3548242
00000000: de60 993f 02bb 903f 6d21 463f 6898 9b3f
00000010: 3648 a63f f7da f13e cfb0 a83f d07a 923f
00000020: 79b3 a33f 98c5 993f 032e 993f 45f5 783f
00000030: 59ed 663f 7179 783f b7e9 273f 5129 bf3e
00000040: 2fa6 273f c21e 873f d3ab 7f3f 8fed 873f
00000050: a23a 983f c57c 0d3f 119a 943f b787 233f
00000060: eedb 8f3f 1d40 6e3f ec68 1b3f 99da 913f
00000070: 882a 873f 2cd7 283f bab4 0a3f e16a ad3f

batch2.bias f4 [32]
0.1823394 0.12590562 -0.18472528 0.2872103 -0.122017145 -0.663312 -0.07016832 0.12183386
0.25510538 -0.22969383 0.19927333 0.1168353 -0.10693782 -0.05096985 -0.3110781 -0.6279034
-0.3010412 -0.29456553 -0.019212252 0.05724554 0.15924755 -0.22917156 0.18411084 -0.3699167
0.109689616 -0.2701463 -0.61780906 0.11969023 -0.39302287 -0.3554921 -0.44263163 0.30288187
00000000: 2eb7 3a3e 67ed 003e a028 3dbe 3a0d 933e
00000010: 20e4 f9bd d1ce 29bf 68b4 8fbd 0884 f93d
00000020: 2c9d 823e dc34 6bbe 4f0e 4c3e 5947 ef3d
00000030: 3702 dbbd c3c5 50bd a145 9fbe 47be 20bf
00000040: 1222 9abe 4bd1 96be 0363 9dbc 4d7a 6a3d
00000050: ca11 233e f3ab 6abe 8d87 3c3e b965 bdbe
00000060: f3a4 e03d 9e50 8abe bc28 1ebf 2720 f53d
00000070: 4b3a c9be 0f03 b6be 9da0 e2be 5513 9b3e

batch2.running_mean f4 [32]
6.8992944 7.568324 -8.36408 2.4229507 6.2134085 7.5402207 11.595947 -12.098225
-11.318679 6.800609 2.1977491 9.710092 -10.740273 -10.824444 -7.462394 -4.8592396
-5.311512 6.149515 -10.980529 -12.509012 -12.337018 7.223846 8.764135 -2.0582948
-11.748766 10.205439 9.504614 -12.189918 8.069753 -3.076593 7.917379 -12.171441
00000000: 05c7 dc40 b62f f240 46d3 05c1 a011 1b40
00000010: 3ed4 c640 7d49 f140 0089 3941 5492 41c1
00000020: 4f19 35c1 979e d940 eca7 0c40 895c 1b41
00000030: 29d8 2bc1 ec30 2dc1 efcb eec0 e47e 9bc0
00000040: e8f7 a9c0 d4c8 c440 3fb0 2fc1 ea24 48c1
00000050: 6d64 45c1 bf29 e740 e639 0c41 1abb 03c0
00000060: f2fa 3bc1 7a49 2341 e612 1841 e709 43c1
00000070: b51d 0141 e6e6 44c0 2b5b fd40 39be 42c1

batch2.running_var f4 [32]
512.853 859.70386 392.57254 795.3814 388.2167 230.78076 1065.508 659.8823
578.2982 472.28506 445.55368 444.78857 576.84534 547.8146 346.93805 198.70844
182.34146 427.3534 561.4696 708.4699 676.7958 275.14246 907.1715 34.462105
616.3343 665.27563 414.59128 674.5821 603.8482 55.95764 278.17145 664.07184
00000000: 9836 0044 0ced 5644 4949 c443 69d8 4644
00000010: bd1b c243 e0c7 6643 4230 8544 78f8 2444
00000020: 1693 1044 7d24 ec43 dfc6 de43 f064 de43
00000030: 1a36 1044 22f4 0844 1278 ad43 5cb5 4643
00000040: 6a57 3643 3cad d543 0e5e 0c44 131e 3144
00000050: ee32 2944 3c92 8943 faca 6244 32d9 0942
00000060: 6515 1a44 a451 2644 af4b cf43 41a5 2844
00000070: 49f6 1644 a0d4 5f42 f215 8b43 9904 2644

fc1.weight f4 [50, 3136]
-0.78859 -0.7264986 -0.64818066 -0.54636043 -0.44024944 -0.344484 -0.24360603 -0.1948884
-0.11477648 -0.11538185 -0.085536875 -0.11994434 -0.15848388 -0.17242095 -0.20144528 -0.21604903
-0.21923812 -0.25201795 -0.23613504 -0.26205 -0.28725722 -0.2851661 -0.3106896 -0.3115621
-0.29585743 -0.25932616 -0.17492853 -0.15114114 -0.15093309 -0.20870669 -0.25551778 -0.2951874
-0.28827825 -0.25199598 -0.24145104 -0.22112262 -0.19379728 -0.20281476 -0.2194063 -0.1994223
-0.21504045 -0.2235841 -0.24046999 -0.25289968 -0.27004743 -0.2985767 -0.3070172 -0.30147052
-0.29915038 -0.2666274 -0.23436984 -0.2280491 -0.21137305 -0.20855267 -0.20185634 -0.22502346
-0.24462219 -0.26393968 -0.27997562 -0.29331926 -0.24114023 -0.22879739 -0.21527784 -0.19775225
-0.23487076 -0.26018316 -0.27152014 -0.27242857 -0.28634185 -0.27762327 -0.22667663 -0.22726251
-0.20339122 -0.20167589 -0.20896178 -0.20149551 -0.22334194 -0.23173732 -0.25135332 -0.21822971
-0.2307261 -0.20176291 -0.20353296 -0.20312615 -0.19960858 -0.17513347 -0.16855259 -0.14580944
-0.15405275 -0.12771933 -0.12923661 -0.15833281 -0.20150119 -0.27428392 -0.38529667 -0.4773604
-0.5534075 -0.6034383 -0.72386926 -0.70959055 -0.5466772 -0.4817651 -0.36500338 -0.28700438
-0.20087765 -0.1353289 -0.10557401 -0.08931943 -0.1089924 -0.12526342 -0.16300337 -0.13591346
-0.15414982 -0.17228155 -0.1669833 -0.18187681 -0.1640837 -0.18101794 -0.18264012 -0.22228305
-0.2163911 -0.1954006 -0.19913055 -0.15576133 -0.093722865 -0.058521483 -0.07334758 -0.09999375
-0.16617909 -0.18024951 -0.18396147 -0.19411764 -0.1631792 -0.16762914 -0.15489495 -0.15468313
-0.14601584 -0.14368536 -0.1787064 -0.16884106 -0.18677312 -0.21132992 -0.20878586 -0.20040353
-0.22206968 -0.18748263 -0.19572961 -0.15868138 -0.14960665 -0.13250469 -0.15595514 -0.11576318
-0.13785686 -0.17064524 -0.19385627 -0.25495288 -0.276256 -0.27889875 -0.25207105 -0.22369455
-0.22822161 -0.22887072 -0.2538682 -0.24203464 -0.24845351 -0.28760073 -0.26906487 -0.25922734
-0.2356901 -0.21207961 -0.20594636 -0.21901423 -0.21598358 -0.21355258 -0.26951304 -0.28424963
-0.2879038 -0.25274765 -0.25691676 -0.24765952 -0.27716303 -0.26224196 -0.22008689 -0.19284138
-0.1991846 -0.1776977 -0.19328226 -0.16184554 -0.1743451 -0.19852787 -0.22451158 -0.2748778
-0.34993982 -0.4581881 -0.5324218 -0.6158711 0.20163669 0.23124102 0.23925783 0.20527382
0.14711064 0.04076965 0.0028914544 -0.008673768 -0.0010691071 0.0659413 0.07238903 0.1030124
0.10879157 0.12344355 0.1413536 0.116953366 0.12772317 0.12079602 0.06923437 0.06726654
0.08292026 0.07502662 0.01700377 -0.041085184 -0.023400126 -0.0148931295 0.017343987 0.04522912
0.041171134 0.03823776 0.02290712 0.012432329 -0.01850616 0.015393511 0.086362146 0.09828032
0.13897678 0.121650495 0.10353866 0.050190486 0.05296504 0.078898296 0.065565646 0.08482961
0.079966724 0.0834769 0.046360534 0.06737163 0.05165019 0.051474106 0.04166719 0.039499573
0.07684983 0.09477703 0.12953046 0.119158596 0.13369213 0.1291475 0.100009724 0.07723233
00000000: 09e1 49bf d0fb 39bf 2bef 25bf 47de 0bbf
00000010: 6068 e1be 3560 b0be dc73 79be d390 47be
00000020: ee0f ebbd 524d ecbd f52d afbd 61a5 f5bd
00000030: 9949 22be 1e8f 30be ac47 4ebe f53b 5dbe
00000040: f57f 60be 7f08 81be 62cd 71be 6b2b 86be
00000050: 6113 93be 4b01 92be b512 9fbe 1185 9fbe
00000060: a07a 97be 66c6 84be 7720 33be bec4 1abe
00000070: 348e 1abe 35b7 55be 3ad3 82be ce22 97be
00000080: 3599 93be 9e05 81be f13e 77be f86d 62be
00000090: cb72 46be acae 4fbe 0cac 60be 5c35 4cbe
000000a0: 9033 5cbe 3bf3 64be c43d 76be 117c 81be
000000b0: a843 8abe 0cdf 98be 5c31 9dbe 585a 9abe
000000c0: 3d2a 99be 6383 88be a6fe 6fbe b485 69be
000000d0: 2d72 58be d58e 55be 6eb3 4ebe 8d6c 66be
000000e0: 3d7e 7abe 1a23 87be f758 8fbe f12d 96be
000000f0: 77ed 76be dd49 6abe cb71 5cbe 917f 4abe
00000100: f681 70be ba36 85be b004 8bbe c27b 8bbe
00000110: 669b 92be a324 8ebe eb1d 68be 81b7 68be
00000120: ca45 50be 2084 4ebe 14fa 55be d754 4ebe
00000130: c0b3 64be 8c4c 6dbe 62b1 80be 9c77 5fbe
00000140: 7643 6cbe f09a 4ebe f26a 50be 4d00 50be
00000150: 3166 4cbe 3056 33be 0d99 2cbe 124f 15be
00000160: 01c0 1dbe dbc8 02be 9a56 04be ff21 22be
00000170: 5456 4ebe f16e 8cbe 9b45 c5be 9568 f4be
00000180: 1dac 0dbf ef7a 1abf 7f4f 39bf baa7 35bf
00000190: 09f3 0bbf eaa9 f6be b9e1 babe 3df2 92be
000001a0: dfb2 4dbe a993 0abe 3037 d8bd 1bed b6bd
000001b0: 6837 dfbd 0e45 00be 5bea 26be e62c 0bbe
000001c0: 73d9 1dbe 936a 30be acfd 2abe ea3d 3abe
000001d0: 8f05 28be c45c 39be 0306 3bbe 2b9e 63be
000001e0: a195 5dbe 1817 48be e1e8 4bbe e67f 1fbe
000001f0: c6f1 bfbd 39b4 6fbd 4237 96bd 86c9 ccbd
00000200: da2a 2abe 5493 38be 6560 3cbe c6c6 46be
00000210: 7318 27be f9a6 2bbe c89c 1ebe 4165 1ebe
00000220: 2d85 15be 4122 13be cffe 36be ace4 2cbe
00000230: 7441 3fbe df66 58be f6cb 55be 9536 4dbe
00000240: 3c66 63be 72fb 3fbe 586d 48be 5f7d 22be
00000250: 7c32 19be 4faf 07be b4b2 1fbe 3f15 edbd
00000260: 592a 0dbe a0bd 2ebe 4282 46be 2f89 82be
00000270: 6d71 8dbe d1cb 8ebe 750f 81be 2f10 65be
00000280: edb2 69be 165d 6abe 03fb 81be eed7 77be
00000290: 996a 7ebe 6740 93be dfc2 89be 72b9 84be
000002a0: bf58 71be 662b 59be 9ae3 52be 4445 60be
000002b0: cd2a 5dbe 87ad 5abe 9dfd 89be 2b89 91be
000002c0: 2068 93be 2468 81be 988a 83be 759a 7dbe
000002d0: 50e8 8dbe 9444 86be 755e 61be 3678 45be
000002e0: 0cf7 4bbe 63f6 35be c9eb 45be d6ba 25be
000002f0: 8687 32be e44a 4bbe 5de6 65be c8bc 8cbe
00000300: 502b b3be a197 eabe cc4c 08bf baa9 1dbf
00000310: d979 4e3e 72ca 6c3e 0100 753e 4d33 523e
00000320: 2ca4 163e 14fe 263d 8e7e 3d3b 6b1c 0ebc
00000330: 4821 8cba 3b0c 873d b340 943d 2af8 d23d
00000340: 1dce de3d f9cf fc3d 00bf 103e 3f85 ef3d
00000350: ddc9 023e e763 f73d c0ca 8d3d 0ac3 893d
00000360: 19d2 a93d 8ea7 993d 7e4b 8b3c f048 28bd
00000370: 9fb1 bfbc 5002 74bc fa14 8e3c 2b42 393d
00000380: 10a3 283d 339f 1c3d b6a7 bb3c f8b0 4b3c
00000390: 3b9a 97bc 1135 7c3c a3de b03d 3147 c93d
000003a0: ee4f 0e3e e523 f93d 140c d43d 8a94 4d3d
000003b0: dff1 583d 6e95 a13d 4847 863d 26bb ad3d
000003c0: 98c5 a33d f0f5 aa3d 8be4 3d3d 23fa 893d
000003d0: 268f 533d 83d6 523d 37ab 2a3d 4eca 213d
000003e0: 7263 9d3d 761a c23d a2a3 043e 6c09 f43d
000003f0: 97e6 083e 3e3f 043e e6d1 cc3d fc2b 9e3d

fc1.bias f4 [50]
-0.23996559 0.2570198 -0.25082397 0.26725554 -0.2080982 0.18847777 0.19539157 0.33681595
-0.2188987 -0.17198892 -0.2512772 -0.23387907 0.27655533 0.2003421 -0.19578685 0.23974213
-0.24653365 0.20943691 -0.17350155 0.20506799 -0.022166021 0.2572902 0.19337848 -0.106214955
-0.25286305 -0.24200809 -0.22413453 -0.21159817 0.22005908 0.21097882 -0.21150558 0.24468394
-0.22816136 0.1370919 0.22617076 -0.24991237 0.2744506 0.28141242 0.087690145 0.23087963
0.31110922 0.24683525 0.18382712 -0.23842676 -0.23806402 -0.17937025 0.25002077 -0.2568177
-0.24588807 -0.02343778
00000000: 8ab9 75be 1998 833e 006c 80be b8d5 883e
00000010: b217 55be 5100 413e ba14 483e 2473 ac3e
00000020: fb26 60be dd1d 30be 68a7 80be ff7d 6fbe
00000030: a998 8d3e 7b26 4d3e 597c 48be f67e 753e
00000040: 5173 7cbe a176 563e 64aa 31be 58fd 513e
00000050: 8495 b5bc 8bbb 833e 0205 463e 3a87 d9bd
00000060: 4477 81be f8d0 77be 8683 65be 31ad 58be
00000070: 2b57 613e d50a 583e eb94 58be 6d8e 7a3e
00000080: 22a3 69be d261 0c3e 4f99 673e 07e9 7fbe
00000090: ca84 8c3e 4a15 903e e496 b33d b66b 6c3e
000000a0: b549 9f3e 61c2 7c3e 2d3d 3c3e 2526 74be
000000b0: 0ec7 73be d6ac 37be b902 803e 9c7d 83be
000000c0: 15ca 7bbe 9600 c0bc
